# yolov8.yaml
# YOLOv8 configuration file

# Number of classes (change this to the number of classes in your dataset, e.g., 1 for 'car')
nc: 1

# Model depth and width multiples (you can adjust these values for smaller or larger models)
depth_multiple: 1.0
width_multiple: 1.0

# Anchor points (adjust based on the shapes of objects in your dataset)
anchors:
  - [10,13, 16,30, 33,23]
  - [30,61, 62,45, 59,119]
  - [116,90, 156,198, 373,326]

# Backbone network configuration
backbone:
  # [from, number, module, args]
  - [ -1, 1, Focus, [64, 3]]
  - [ -1, 1, Conv, [128, 3, 2]]
  - [ -1, 3, BottleneckCSP, [128]]
  - [ -1, 1, Conv, [256, 3, 2]]
  - [ -1, 9, BottleneckCSP, [256]]
  - [ -1, 1, Conv, [512, 3, 2]]
  - [ -1, 9, BottleneckCSP, [512]]
  - [ -1, 1, Conv, [1024, 3, 2]]
  - [ -1, 1, SPP, [1024, [5, 9, 13]]]
  - [ -1, 6, BottleneckCSP, [1024, False]]
  - [ -1, 1, Conv, [512, 1, 1]]
  - [ -1, 1, Upsample, [None, 2, 'nearest']]
  - [ [-1, 6], 1, Concat, [1]]
  - [ -1, 3, BottleneckCSP, [512, False]]
  - [ -1, 1, Conv, [256, 1, 1]]
  - [ -1, 1, Upsample, [None, 2, 'nearest']]
  - [ [-1, 4], 1, Concat, [1]]
  - [ -1, 3, BottleneckCSP, [256, False]]
  - [ -1, 1, Conv, [128, 1, 1]]
  - [ -1, 1, Upsample, [None, 2, 'nearest']]
  - [ [-1, 2], 1, Concat, [1]]
  - [ -1, 3, BottleneckCSP, [128, False]]
  - [ -1, 1, Conv, [64, 1, 1]]
  - [ -1, 1, Upsample, [None, 2, 'nearest']]
  - [ [-1, 0], 1, Concat, [1]]
  - [ -1, 1, Conv, [32, 1, 1]]

# Head network configuration
head:
  # [from, number, module, args]
  - [ -1, 3, BottleneckCSP, [32, False]]
  - [ -1, 1, Conv, [64, 3, 2]]
  - [ [-1, 20], 1, Concat, [1]]
  - [ -1, 3, BottleneckCSP, [64, False]]
  - [ -1, 1, Conv, [128, 3, 2]]
  - [ [-1, 16], 1, Concat, [1]]
  - [ -1, 3, BottleneckCSP, [128, False]]
  - [ -1, 1, Conv, [256, 3, 2]]
  - [ [-1, 12], 1, Concat, [1]]
  - [ -1, 3, BottleneckCSP, [256, False]]
  - [ -1, 1, Conv, [512, 3, 2]]
  - [ [-1, 8], 1, Concat, [1]]
  - [ -1, 3, BottleneckCSP, [512, False]]
  - [ -1, 1, Conv, [1024, 3, 2]]
  - [ [-1, 4], 1, Concat, [1]]
  - [ -1, 3, BottleneckCSP, [1024, False]]
  - [ [-1, 6, 9, 13, 16, 19, 22, 25], 1, Concat, [1]]
  - [ -1, 1, Detect, [nc, anchors]]
